…
number">2</span>)</span><br><span class="line">        x = x.view(<span class="number">-1</span>, self.num_flat_feature(x))</span><br><span class="line">        x = F.relu(self.fc1(x))</span><br><span class="line">        x = F.relu(self.fc2(x))</span><br><span class="line">        x = self.fc3(x)</span><br><span class="line"></span><br><span class="line">        <span class="keyword">return</span> num_features</span><br><span class="line"></span><br><span class="line">net = Net()</span><br><span class="line">print(net)</span><br></pre></td></tr></table></figure><p>输出：</p><pre><code>Net((conv1): Conv2d(1, 6, kernel_size=(3, 3), stride=(1, 1))(conv2): Conv2d(6, 16, kernel_size=(3, 3), stride=(1, 1))(fc1): Linear(in_features=576, out_features=120, bias=True)(fc2): Linear(in_features=120, out_features=84, bias=True)(fc3): Linear(in_features=84, out_features=10, bias=True))</code></pre><p>你只需要定义一个<code>forward</code>函数，<code>backward</code>函数（计算梯度的函数）会自动使用<code>autograd</code>定义。你在<code>forward</code>函数里使用任何张量操作。</p><p>模型的可学习参数通过<code>net.parameters()</code>获得</p><figure class="highlight python"><table><tr><td class="gutter"><pre><span class="line">1</span><br><span class="line">2</span><br><span class="line">3</span><br><
…
n class="number">3</span>)),</span><br><span class="line">    (<span class="string">'bn1'</span>, nn.BatchNorm2d(<span class="number">3</span>)),</span><br><span class="line">    (<span class="string">'relu1'</span>, nn.ReLU()),</span><br><span class="line">]))</span><br><span class="line"></span><br><span class="line">print(<span class="string">'net1'</span>, net1)</span><br><span class="line">print(<span class="string">'net2'</span>, net2)</span><br><span class="line">print(<span class="string">'net3'</span>, net3)</span><br></pre></td></tr></table></figure><pre><code>net1 Sequential(  (conv): Conv2d(3, 3, kernel_size=(3, 3), stride=(1, 1))  (batchnorm): BatchNorm2d(3, eps=1e-05, momentum=0.1, affine=True, track_running_stats=True)  (activation_layer): ReLU())net2 Sequential(  (0): Conv2d(3, 3, kernel_size=(3, 3), stride=(1, 1))  (1): BatchNorm2d(3, eps=1e-05, momentum=0.1, affine=True, track_running_stats=True)  (2): ReLU())net3 Sequential(  (conv1): Conv2d(3, 3, kernel_size=(3, 3), stride=(1, 1))  (bn1): BatchNorm2d(3, eps=1e-05, momentum=0.1, affine=True, track_running_stats=True)  (relu1): ReLU())</code></pre><figure class="highlight python"><table><tr><td class="gutter"><pre><span class="line">1</span><br><span class="line">2</span><br></pre></td><td class="code"><pre><span class="line"><span class="comment"># 可根据名字或序号取出子module</span></span><br><span class="line">net1.conv, net2[<span class="number">0</spa
…
