…
lass Net(nn.Module): def __init__(self): super(Net, self).__init__() # 1是图片通道，6是输出通道，3x3正方形卷积 # 核（kernel） self.conv1 = nn.Conv2d(1, 6, 3) self.conv2 = nn.Conv2d(6, 16, 3) # 一个仿射操作：y = wx + b self.fc1 = nn.Linear(16 * 6 * 6, 128) self.fc2 = nn.Linear(120, 84) self.fc3 = nn.Linear(84, 10) def forward(self, x): # 在(2, 2)窗口上的最大池化 x = F.max_pool2d(F.relu(self.conv1(x)), (2, 2)) # 如果是正方形size可以指定一个数 x = F.max_pool2d(F.relu(self.conv2(x)), 2) x = x.view(-1, self.num_flat_feature(x)) x = F.relu(self.fc1(x)) x = F.relu(self.fc2(x)) x = self.fc3(x) return num_featuresnet = Net()print(net) 输出： Net( (conv1): Conv2d(1, 6, kernel_size=(3, 3), stride=(1, 1)) (conv2): Conv2d(6, 16, kernel_size=(3, 3), stride=(1, 1)) (fc1): Linear(in_features=576, out_features=120, bias=True) (fc2): Linear(in_features=120, out_features=84, bias=True) (fc3): Linear(in_features=84, out_features=10, bias=True) ) 你只需要定义一个forward函数，backward函数（计算梯度的函数）会自动使用autograd定义。你在forward函数里使用任何张量操作。 模型的可学习参数通过net.parameters()获得 123params = list(net.parameters())print(len(params))print(params[0].size()) # conv1的权重 输出： 10 torch.Size([6, 1, 3, 3]) 让我们尝试一个随机的32x32的输入。注意：这个网络（LeNet）期望输入的大小是32x32。在MNIST数据集上使用这个网络，请把数据集的图片的大小转换成32x32。 123input = torch.randn(1, 1, 32, 32)out = net(
…
345678910111213141516171819202122# Sequential的三种写法net1 = nn.Sequential()net1.add_module('conv', nn.Conv2d(3, 3, 3)) # 输入为(N, C_&#123;in&#125;, H_&#123;in&#125;, W_&#123;in&#125;)，参数为net1.add_module('batchnorm', nn.BatchNorm2d(3)) # 3为(N, C, H, W)中的Cnet1.add_module('activation_layer', nn.ReLU())net2 = nn.Sequential( nn.Conv2d(3, 3, 3), nn.BatchNorm2d(3), nn.ReLU() )from collections import OrderedDictnet3 = nn.Sequential(OrderedDict([ ('conv1', nn.Conv2d(3, 3, 3)), ('bn1', nn.BatchNorm2d(3)), ('relu1', nn.ReLU()),]))print('net1', net1)print('net2', net2)print('net3', net3) net1 Sequential( (conv): Conv2d(3, 3, kernel_size=(3, 3), stride=(1, 1)) (batchnorm): BatchNorm2d(3, eps=1e-05, momentum=0.1, affine=True, track_running_stats=True) (activation_layer): ReLU() ) net2 Sequential( (0): Conv2d(3, 3, kernel_size=(3, 3), stride=(1, 1)) (1): BatchNorm2d(3, eps=1e-05, momentum=0.1, affine=True, track_running_stats=True) (2): ReLU() ) net3 Sequential( (conv1): Conv2d(3, 3, kernel_size=(3, 3), stride=(1, 1)) (bn1): BatchNorm2d(3, eps=1e-05, momentum=0.1, affine=True, track_running_stats=True) (relu1): ReLU() ) 12# 可根据名字或序号取出子modulenet1.conv, net2[0], net3.conv1 (Conv2d(3, 3, kernel_size=(3, 3), stride=(1, 1)), Conv2d(3, 3, kernel_size=(3, 3), stride=(1, 1)), Conv2d(3, 3, kernel_size=(3, 3), stride=(1, 1))) 12input = V(t.rand(1, 3, 4, 4))net1(input), net2(input), net3(input), net3.relu1(net2[1](net1.conv(input))) (tensor
…
